…
e analysis.\n\n\n\n\n\n\nNote\n\n\n\nYou can still follow along on your own computer without GPU access.\n\n\n\nfrom transformers import AutoTokenizer, EsmForMaskedLM\n\nsmall_model = EsmForMaskedLM.from_pretrained(ModelName.ESM2_8M.value)\nconsole.print(small_model)\n\n/opt/miniconda3/envs/paired-token-masking/lib/python3.12/site-packages/tqdm/auto.py:21: TqdmWarning:\n\nIProgress not found. Please update jupyter and ipywidgets. See https://ipywidgets.readthedocs.io/en/stable/user_install.html\n\n\n\nEsmForMaskedLM(\n  (esm): EsmModel(\n    (embeddings): EsmEmbeddings(\n      (word_embeddings): Embedding(33, 320, padding_idx=1)\n      (dropout): Dropout(p=0.0, inplace=False)\n      (position_embeddings): Embedding(1026, 320, padding_idx=1)\n    )\n    (encoder): EsmEncoder(\n      (layer): ModuleList(\n        (0-5): 6 x EsmLayer(\n          (attention): EsmAttention(\n            (self): EsmSelfAttention(\n              (query): Linear(in_features=320, out_features=320, bias=True)\n              (key): Linear(in_features=320, out_features=320, bias=True)\n              (value): Linear(in_features=320, out_features=320, bias=True)\n              (dropout): Dropout(p=0.0, inplace=False)\n              (rotary_embeddings): RotaryEmbedding()\n            )\n            (output): EsmSelfOutput(\n              (dense): Linear(in_features=320, out_features=320, bias=True)\n              (dropout): Dropout(p=0.0, inplace=False)\n            )\n            (LayerNorm): LayerNorm((320,), eps=1e-05, elementwise_affine=True)\n          )\n          (intermediate): EsmIntermediate(\n            (dense): Linear(in_features=320, out_features=1280, bias=True)\n          )\n          (output): EsmOutput(\n            (dense): Linear(in_features=1280, out_features=320, bias=True)\n            (dropout): Dropout(p=0.0, inplace=False)\n          )\n          (LayerNorm): LayerNorm((320,), eps=1e-05, elementwise_affine=True)\n        )\n      )\n      (emb_layer_norm_after): LayerNorm((320,), eps=1e-05, elementwise_affine=True)\n    )\n    (contact_head): EsmContactPredictionHead(\n      (regression): Linear(in_features=120, out_features=1, bias=True)\n      (activation): Sigmoid()\n    )\n  )\n  (lm_head): EsmLMHead(\n    (dense): Linear(in_features=320, out_features=320, bias=True)\n    (layer_norm): LayerNorm((320,), eps=1e-05, elementwise_affine=True)\n    (decoder): Linear(in_features=320, out_features=33, bias=False)\n  )\n)\n\n\n\nIn addition to the base ESM architecture, this model has an attached language-model decoder head, which you can see at the bottom of the printed model architecture. It is this part of the model that converts the latent embedding produced by the model into the logits array which we will then transform into amino acid probability distributions."
…
